You have selected an image input
shared feature network
Model: "feature_net"
_________________________________________________________________
Layer (type)                 Output Shape              Param #
=================================================================
input_1 (InputLayer)         [(None, 48, 48, 3)]       0
_________________________________________________________________
conv2d (Conv2D)              (None, 24, 24, 16)        1216
_________________________________________________________________
batch_normalization (BatchNo (None, 24, 24, 16)        64
_________________________________________________________________
conv2d_1 (Conv2D)            (None, 12, 12, 32)        12832
_________________________________________________________________
batch_normalization_1 (Batch (None, 12, 12, 32)        128
_________________________________________________________________
conv2d_2 (Conv2D)            (None, 6, 6, 32)          25632
_________________________________________________________________
batch_normalization_2 (Batch (None, 6, 6, 32)          128
_________________________________________________________________
flatten (Flatten)            (None, 1152)              0
_________________________________________________________________
dense (Dense)                (None, 128)               147584
_________________________________________________________________
dense_1 (Dense)              (None, 128)               16512
_________________________________________________________________
dense_2 (Dense)              (None, 64)                8256
=================================================================
Total params: 212,352
Trainable params: 212,192
Non-trainable params: 160
_________________________________________________________________
Model: "actor"
_________________________________________________________________
Layer (type)                 Output Shape              Param #
=================================================================
input_2 (InputLayer)         [(None, 48, 48, 3)]       0
_________________________________________________________________
feature_net (Functional)     (None, 64)                212352
_________________________________________________________________
dense_3 (Dense)              (None, 256)               16640
_________________________________________________________________
dense_4 (Dense)              (None, 128)               32896
_________________________________________________________________
dense_5 (Dense)              (None, 64)                8256
_________________________________________________________________
dense_6 (Dense)              (None, 3)                 195
_________________________________________________________________
tf.math.multiply (TFOpLambda (None, 3)                 0
=================================================================
Total params: 270,339
Trainable params: 270,179
Non-trainable params: 160
_________________________________________________________________
Model: "model"
__________________________________________________________________________________________________
Layer (type)                    Output Shape         Param #     Connected to
==================================================================================================
input_3 (InputLayer)            [(None, 48, 48, 3)]  0
__________________________________________________________________________________________________
feature_net (Functional)        (None, 64)           212352      input_3[0][0]
__________________________________________________________________________________________________
dense_7 (Dense)                 (None, 32)           2080        feature_net[1][0]
__________________________________________________________________________________________________
input_4 (InputLayer)            [(None, 3)]          0
__________________________________________________________________________________________________
dense_8 (Dense)                 (None, 32)           1056        dense_7[0][0]
__________________________________________________________________________________________________
dense_9 (Dense)                 (None, 32)           128         input_4[0][0]
__________________________________________________________________________________________________
concatenate (Concatenate)       (None, 64)           0           dense_8[0][0]
                                                                 dense_9[0][0]
__________________________________________________________________________________________________
dense_10 (Dense)                (None, 128)          8320        concatenate[0][0]
__________________________________________________________________________________________________
dense_11 (Dense)                (None, 64)           8256        dense_10[0][0]
__________________________________________________________________________________________________
dense_12 (Dense)                (None, 1)            65          dense_11[0][0]
==================================================================================================
Total params: 232,257
Trainable params: 232,097
Non-trainable params: 160
__________________________________________________________________________________________________
Model: "model_1"
__________________________________________________________________________________________________
Layer (type)                    Output Shape         Param #     Connected to
==================================================================================================
input_5 (InputLayer)            [(None, 48, 48, 3)]  0
__________________________________________________________________________________________________
feature_net (Functional)        (None, 64)           212352      input_5[0][0]
__________________________________________________________________________________________________
dense_13 (Dense)                (None, 32)           2080        feature_net[2][0]
__________________________________________________________________________________________________
input_6 (InputLayer)            [(None, 3)]          0
__________________________________________________________________________________________________
dense_14 (Dense)                (None, 32)           1056        dense_13[0][0]
__________________________________________________________________________________________________
dense_15 (Dense)                (None, 32)           128         input_6[0][0]
__________________________________________________________________________________________________
concatenate_1 (Concatenate)     (None, 64)           0           dense_14[0][0]
                                                                 dense_15[0][0]
__________________________________________________________________________________________________
dense_16 (Dense)                (None, 128)          8320        concatenate_1[0][0]
__________________________________________________________________________________________________
dense_17 (Dense)                (None, 64)           8256        dense_16[0][0]
__________________________________________________________________________________________________
dense_18 (Dense)                (None, 1)            65          dense_17[0][0]
==================================================================================================
Total params: 232,257
Trainable params: 232,097
Non-trainable params: 160
__________________________________________________________________________________________________
Model: "model_2"
__________________________________________________________________________________________________
Layer (type)                    Output Shape         Param #     Connected to
==================================================================================================
input_7 (InputLayer)            [(None, 48, 48, 3)]  0
__________________________________________________________________________________________________
feature_net (Functional)        (None, 64)           212352      input_7[0][0]
__________________________________________________________________________________________________
dense_19 (Dense)                (None, 32)           2080        feature_net[3][0]
__________________________________________________________________________________________________
input_8 (InputLayer)            [(None, 3)]          0
__________________________________________________________________________________________________
dense_20 (Dense)                (None, 32)           1056        dense_19[0][0]
__________________________________________________________________________________________________
dense_21 (Dense)                (None, 32)           128         input_8[0][0]
__________________________________________________________________________________________________
concatenate_2 (Concatenate)     (None, 64)           0           dense_20[0][0]
                                                                 dense_21[0][0]
__________________________________________________________________________________________________
dense_22 (Dense)                (None, 128)          8320        concatenate_2[0][0]
__________________________________________________________________________________________________
dense_23 (Dense)                (None, 64)           8256        dense_22[0][0]
__________________________________________________________________________________________________
dense_24 (Dense)                (None, 1)            65          dense_23[0][0]
==================================================================================================
Total params: 232,257
Trainable params: 232,097
Non-trainable params: 160
__________________________________________________________________________________________________
Model: "model_3"
__________________________________________________________________________________________________
Layer (type)                    Output Shape         Param #     Connected to
==================================================================================================
input_9 (InputLayer)            [(None, 48, 48, 3)]  0
__________________________________________________________________________________________________
feature_net (Functional)        (None, 64)           212352      input_9[0][0]
__________________________________________________________________________________________________
dense_25 (Dense)                (None, 32)           2080        feature_net[4][0]
__________________________________________________________________________________________________
input_10 (InputLayer)           [(None, 3)]          0
__________________________________________________________________________________________________
dense_26 (Dense)                (None, 32)           1056        dense_25[0][0]
__________________________________________________________________________________________________
dense_27 (Dense)                (None, 32)           128         input_10[0][0]
__________________________________________________________________________________________________
concatenate_3 (Concatenate)     (None, 64)           0           dense_26[0][0]
                                                                 dense_27[0][0]
__________________________________________________________________________________________________
dense_28 (Dense)                (None, 128)          8320        concatenate_3[0][0]
__________________________________________________________________________________________________
dense_29 (Dense)                (None, 64)           8256        dense_28[0][0]
__________________________________________________________________________________________________
dense_30 (Dense)                (None, 1)            65          dense_29[0][0]
==================================================================================================
Total params: 232,257
Trainable params: 232,097
Non-trainable params: 160
__________________________________________________________________________________________________
2021-07-27 14:22:27.164383: I tensorflow/stream_executor/cuda/cuda_gpu_executor.cc:941] successful NUMA node read from SysFS had negative value (-1), but there must be at least one NUMA node, so returning NUMA node zero
…
